…
│    └─GRUCell: 2-6                                          --
│    │    └─Linear: 3-25                                     147,840
│    │    └─LayerNorm: 3-26                                  768
├─CategoricalNet: 1-4                                        --
│    └─Linear: 2-7                                           516
=====================================================================================
Total params: 9,828,100
Trainable params: 9,828,100
Non-trainable params: 0
=====================================================================================
GW_Actor(
  (visual_encoder): RecurrentVisualEncoder(
    (cnn): Sequential(
      (0): Conv2d(3, 32, kernel_size=(8, 8), stride=(4, 4))
      (1): ReLU(inplace=True)
      (2): Conv2d(32, 64, kernel_size=(4, 4), stride=(2, 2))
      (3): ReLU(inplace=True)
      (4): Conv2d(64, 64, kernel_size=(3, 3), stride=(2, 2))
      (5): ReLU(inplace=True)
      (6): Flatten()
    )
    (rnn): GRUCell(
      (_layer): Linear(in_features=2944, out_features=1536, bias=True)
      (_norm): LayerNorm((1536,), eps=1e-05, elementwise_affine=True)
    )
  )
  (audio_encoder): RecurrentAudioEncoder(
    (cnn): Sequential(
      (0): Conv2d(2, 32, kernel_size=(5, 5), stride=(2, 2))
      (1): ReLU(inplace=True)
      (2): Conv2d(32, 64, kernel_size=(3, 3), stride=(2, 2))
      (3): ReLU(inplace=True)
      (4): Conv2d(64, 64, kernel_size=(3, 3), stride=(1, 1))
      (5): ReLU(inplace=True)
      (6): Flatten()
    )
    (rnn): GRUCell(
      (_layer): Linear(in_features=3136, out_features=1536, bias=True)
      (_norm): LayerNorm((1536,), eps=1e-05, elementwise_affine=True)
    )
  )
  (state_encoder): GWStateEncoder(
    (ca): CrossAttention(
      (proj_vis): Linear(in_features=512, out_features=128, bias=False)
      (proj_aud): Linear(in_features=512, out_features=128, bias=False)
      (ln_q): LayerNorm((128,), eps=1e-05, elementwise_affine=True)
      (ln_k): LayerNorm((128,), eps=1e-05, elementwise_affine=True)
      (ln_v): LayerNorm((128,), eps=1e-05, elementwise_affine=True)
      (mha): MultiheadAttention(
        (out_proj): NonDynamicallyQuantizableLinear(in_features=128, out_features=128, bias=True)
      )
    )
    (rnn): GRUCell(
      (_layer): Linear(in_features=384, out_features=384, bias=True)
      (_norm): LayerNorm((384,), eps=1e-05, elementwise_affine=True)
    )
  )
  (action_distribution): CategoricalNet(
    (linear): Linear(in_features=128, out_features=4, bias=True)
  )
)
 ### INFO: Dataset statistics ###
{'action_cel_coefs': {0: 4.31017895934623,
                      1: 0.3680092679824768,
                      2: 2.1379496126019806,
                      3: 1.7154708643262975},
 'action_counts': {0: 29001, 1: 339664, 2: 58467, 3: 72866},
 'action_probs': {0: 0.05800223200892803,
                  1: 0.6793307173228693,
…
